…
    mask_schedule_steps: 100000
    F_feature_layer: 34
    F_weights: 1.0
    F_lossfn_type: l1
    F_use_input_norm: True
    F_use_range_norm: False
    G_optimizer_betas: [0.9, 0.999]
    G_scheduler_restart_weights: 1
  ]
  opt_path: options/masked_denoising/input_mask_80_90.json
  is_train: True
  merge_bn: False
  merge_bn_startpoint: -1
  find_unused_parameters: True
  use_static_graph: False
  num_gpu: 1
  rank: 0
  world_size: 1

24-11-09 22:33:34.774 : Number of train images: 68, iters: 2
24-11-09 22:33:38.001 : 
Networks name: SwinIR
Params number: 824118
Net structure:
SwinIR(
  (conv_first): Conv2d(3, 60, kernel_size=(1, 1), stride=(1, 1))
  (patch_embed): PatchEmbed(
    (norm): LayerNorm((60,), eps=1e-05, elementwise_affine=True)
  )
  (patch_unembed): PatchUnEmbed()
  (pos_drop): Dropout(p=0.0, inplace=False)
  (layers): ModuleList(
    (0): RSTB(
      (residual_group): BasicLayer(
        dim=60, input_resolution=(64, 64), depth=6
        (blocks): ModuleList(
          (0): SwinTransformerBlock(
            dim=60, input_resolution=(64, 64), num_heads=6, window_size=8, shift_size=0, mlp_ratio=2
            (norm1): LayerNorm((60,), eps=1e-05, elementwise_affine=True)
            (attn): WindowAttention(
              dim=60, window_size=(8, 8), num_heads=6
              (qkv): Linear(in_features=60, out_features=180, bias=True)
              (attn_drop): Dropout(p=0.0, inplace=False)
              (proj): Linear(in_features=60, out_features=60, bias=True)
              (proj_drop): Dropout(p=0.0, inplace=False)
            )
            (drop_path): Identity()
            (norm2): LayerNorm((60,), eps=1e-05, elementwise_affine=True)
            (mlp): Mlp(
              (fc1): Linear(in_features=60, out_features=120, bias=True)
              (act): GELU(approximate='none')
              (fc2): Linear(in_features=120, out_features=60, bias=True)
              (drop): Dropout(p=0.0, inplace=False)
            )
          )
          (1): SwinTransformerBlock(
            dim=60, input_resolution=(64, 64), num_heads=6, window_size=8, shift_size=4, mlp_ratio=2
            (norm1): LayerNorm((60,), eps=1e-05, elementwise_affine=True)
            (attn): WindowAttention(
              dim=60, window_size=(8, 8), num_heads=6
              (qkv): Linear(in_features=60, out_features=180, bias=True)
              (attn_drop): Dropout(p=0.0, inplace=False)
              (proj): Linear(in_features=60, out_features=60, bias=True)
              (proj_drop): Dropout(p=0.0, inplace=False)
            )
            (drop_path): DropPath(drop_prob=0.004)
            (norm2): LayerNorm((60,), eps=1e-05, elementwise_affine=True)
            (mlp): Mlp(
              (fc1): Linear(in_features=60, out_features=120, bias=True)
              (act): GELU(approximate='none')
              (fc2): Linear(in_features=120, out_features=60, bias=True)
              (drop): Dropout(p=0.0, inplace=False)
            )
          )
          (2): SwinTransformerBlock(
            dim=60, input_resolution=(64, 64), num_heads=6, window_size=8, shift_size=0, mlp_ratio=2
            (norm1): LayerNorm((60,), eps=1e-05, elementwise_affine=True)
            (attn): WindowAttention(
              dim=60, window_size=(8, 8), num_heads=6
              (qkv): Linear(in_features=60, out_features=180, bias=True)
              (attn_drop): Dropout(p=0.0, inplace=False)
              (proj): Linear(in_features=60, out_features=60, bias=True)
              (proj_drop): Dropout(p=0.0, inplace=False)
            )
            (drop_path): DropPath(drop_prob=0.009)
            (norm2): LayerNorm((60,), eps=1e-05, elementwise_affine=True)
            (mlp): Mlp(
              (fc1): Linear(in_features=60, out_features=120, bias=True)
              (act): GELU(approximate='none')
              (fc2): Linear(in_features=120, out_features=60, bias=True)
              (drop): Dropout(p=0.0, inplace=False)
            )
          )
          (3): SwinTransformerBlock(
            dim=60, input_resolution=(64, 64), num_heads=6, window_size=8, shift_size=4, mlp_ratio=2
            (norm1): LayerNorm((60,), eps=1e-05, elementwise_affine=True)
            (attn): WindowAttention(
              dim=60, window_size=(8, 8), num_heads=6
              (qkv): Linear(in_features=60, out_features=180, bias=True)
              (attn_drop): Dropout(p=0.0, inplace=False)
              (proj): Linear(in_features=60, out_features=60, bias=True)
              (proj_drop): Dropout(p=0.0, inplace=False)
            )
            (drop_path): DropPath(drop_prob=0.013)
            (norm2): LayerNorm((60,), eps=1e-05, elementwise_affine=True)
            (mlp): Mlp(
              (fc1): Linear(in_features=60, out_features=120, bias=True)
              (act): GELU(approximate='none')
              (fc2): Linear(in_features=120, out_features=60, bias=True)
              (drop): Dropout(p=0.0, inplace=False)
            )
          )
          (4): SwinTransformerBlock(
            dim=60, input_resolution=(64, 64), num_heads=6, window_size=8, shift_size=0, mlp_ratio=2
            (norm1): LayerNorm((60,), eps=1e-05, elementwise_affine=True)
            (attn): WindowAttention(
              dim=60, window_size=(8, 8), num_heads=6
              (qkv): Linear(in_features=60, out_features=180, bias=True)
              (attn_drop): Dropout(p=0.0, inplace=False)
              (proj): Linear(in_features=60, out_features=60, bias=True)
              (proj_drop): Dropout(p=0.0, inplace=False)
            )
            (drop_path): DropPath(drop_prob=0.017)
            (norm2): LayerNorm((60,), eps=1e-05, elementwise_affine=True)
            (mlp): Mlp(
              (fc1): Linear(in_features=60, out_features=120, bias=True)
              (act): GELU(approximate='none')
              (fc2): Linear(in_features=120, out_features=60, bias=True)
              (drop): Dropout(p=0.0, inplace=False)
            )
          )
          (5): SwinTransformerBlock(
            dim=60, input_resolution=(64, 64), num_heads=6, window_size=8, shift_size=4, mlp_ratio=2
            (norm1): LayerNorm((60,), eps=1e-05, elementwise_affine=True)
            (attn): WindowAttention(
              dim=60, window_size=(8, 8), num_heads=6
              (qkv): Linear(in_features=60, out_features=180, bias=True)
              (attn_drop): Dropout(p=0.0, inplace=False)
              (proj): Linear(in_features=60, out_features=60, bias=True)
              (proj_drop): Dropout(p=0.0, inplace=False)
            )
            (drop_path): DropPath(drop_prob=0.022)
            (norm2): LayerNorm((60,), eps=1e-05, elementwise_affine=True)
            (mlp): Mlp(
              (fc1): Linear(in_features=60, out_features=120, bias=True)
              (act): GELU(approximate='none')
              (fc2): Linear(in_features=120, out_features=60, bias=True)
              (drop): Dropout(p=0.0, inplace=False)
            )
          )
        )
      )
      (conv): Sequential(
        (0): Conv2d(60, 15, kernel_size=(3, 3), stride=(1, 1), padding=(1, 1))
        (1): LeakyReLU(negative_slope=0.2, inplace=True)
        (2): Conv2d(15, 15, kernel_size=(1, 1), stride=(1, 1))
        (3): LeakyReLU(negative_slope=0.2, inplace=True)
        (4): Conv2d(15, 60, kernel_size=(3, 3), stride=(1, 1), padding=(1, 1))
      )
      (patch_embed): PatchEmbed()
      (patch_unembed): PatchUnEmbed()
    )
    (1): RSTB(
      (residual_group): BasicLayer(
        dim=60, input_resolution=(64, 64), depth=6
        (blocks): ModuleList(
          (0): SwinTransformerBlock(
            dim=60, input_resolution=(64, 64), num_heads=6, window_size=8, shift_size=0, mlp_ratio=2
            (norm1): LayerNorm((60,), eps=1e-05, elementwise_affine=True)
            (attn): WindowAttention(
              dim=60, window_size=(8, 8), num_heads=6
              (qkv): Linear(in_features=60, out_features=180, bias=True)
              (attn_drop): Dropout(p=0.0, inplace=False)
              (proj): Linear(in_features=60, out_features=60, bias=True)
              (proj_drop): Dropout(p=0.0, inplace=False)
            )
            (drop_path): DropPath(drop_prob=0.026)
            (norm2): LayerNorm((60,), eps=1e-05, elementwise_affine=True)
            (mlp): Mlp(
              (fc1): Linear(in_features=60, out_features=120, bias=True)
              (act): GELU(approximate='none')
              (fc2): Linear(in_features=120, out_features=60, bias=True)
              (drop): Dropout(p=0.0, inplace=False)
            )
          )
          (1): SwinTransformerBlock(
            dim=60, input_resolution=(64, 64), num_heads=6, window_size=8, shift_size=4, mlp_ratio=2
            (norm1): LayerNorm((60,), eps=1e-05, elementwise_affine=True)
            (attn): WindowAttention(
              dim=60, window_size=(8, 8), num_heads=6
              (qkv): Linear(in_features=60, out_features=180, bias=True)
              (attn_drop): Dropout(p=0.0, inplace=False)
              (proj): Linear(in_features=60, out_features=60, bias=True)
              (proj_drop): Dropout(p=0.0, inplace=False)
            )
            (drop_path): DropPath(drop_prob=0.030)
            (norm2): LayerNorm((60,), eps=1e-05, elementwise_affine=True)
            (mlp): Mlp(
              (fc1): Linear(in_features=60, out_features=120, bias=True)
              (act): GELU(approximate='none')
              (fc2): Linear(in_features=120, out_features=60, bias=True)
              (drop): Dropout(p=0.0, inplace=False)
            )
          )
          (2): SwinTransformerBlock(
            dim=60, input_resolution=(64, 64), num_heads=6, window_size=8, shift_size=0, mlp_ratio=2
            (norm1): LayerNorm((60,), eps=1e-05, elementwise_affine=True)
            (attn): WindowAttention(
              dim=60, window_size=(8, 8), num_heads=6
              (qkv): Linear(in_features=60, out_features=180, bias=True)
              (attn_drop): Dropout(p=0.0, inplace=False)
              (proj): Linear(in_features=60, out_features=60, bias=True)
              (proj_drop): Dropout(p=0.0, inplace=False)
            )
            (drop_path): DropPath(drop_prob=0.035)
            (norm2): LayerNorm((60,), eps=1e-05, elementwise_affine=True)
            (mlp): Mlp(
              (fc1): Linear(in_features=60, out_features=120, bias=True)
              (act): GELU(approximate='none')
              (fc2): Linear(in_features=120, out_features=60, bias=True)
              (drop): Dropout(p=0.0, inplace=False)
            )
          )
          (3): SwinTransformerBlock(
            dim=60, input_resolution=(64, 64), num_heads=6, window_size=8, shift_size=4, mlp_ratio=2
            (norm1): LayerNorm((60,), eps=1e-05, elementwise_affine=True)
            (attn): WindowAttention(
              dim=60, window_size=(8, 8), num_heads=6
              (qkv): Linear(in_features=60, out_features=180, bias=True)
              (attn_drop): Dropout(p=0.0, inplace=False)
              (proj): Linear(in_features=60, out_features=60, bias=True)
              (proj_drop): Dropout(p=0.0, inplace=False)
            )
            (drop_path): DropPath(drop_prob=0.039)
            (norm2): LayerNorm((60,), eps=1e-05, elementwise_affine=True)
            (mlp): Mlp(
              (fc1): Linear(in_features=60, out_features=120, bias=True)
              (act): GELU(approximate='none')
              (fc2): Linear(in_features=120, out_features=60, bias=True)
              (drop): Dropout(p=0.0, inplace=False)
            )
          )
          (4): SwinTransformerBlock(
            dim=60, input_resolution=(64, 64), num_heads=6, window_size=8, shift_size=0, mlp_ratio=2
            (norm1): LayerNorm((60,), eps=1e-05, elementwise_affine=True)
            (attn): WindowAttention(
              dim=60, window_size=(8, 8), num_heads=6
              (qkv): Linear(in_features=60, out_features=180, bias=True)
              (attn_drop): Dropout(p=0.0, inplace=False)
              (proj): Linear(in_features=60, out_features=60, bias=True)
              (proj_drop): Dropout(p=0.0, inplace=False)
            )
            (drop_path): DropPath(drop_prob=0.043)
            (norm2): LayerNorm((60,), eps=1e-05, elementwise_affine=True)
            (mlp): Mlp(
              (fc1): Linear(in_features=60, out_features=120, bias=True)
              (act): GELU(approximate='none')
              (fc2): Linear(in_features=120, out_features=60, bias=True)
              (drop): Dropout(p=0.0, inplace=False)
            )
          )
          (5): SwinTransformerBlock(
            dim=60, input_resolution=(64, 64), num_heads=6, window_size=8, shift_size=4, mlp_ratio=2
            (norm1): LayerNorm((60,), eps=1e-05, elementwise_affine=True)
            (attn): WindowAttention(
              dim=60, window_size=(8, 8), num_heads=6
              (qkv): Linear(in_features=60, out_features=180, bias=True)
              (attn_drop): Dropout(p=0.0, inplace=False)
              (proj): Linear(in_features=60, out_features=60, bias=True)
              (proj_drop): Dropout(p=0.0, inplace=False)
            )
            (drop_path): DropPath(drop_prob=0.048)
            (norm2): LayerNorm((60,), eps=1e-05, elementwise_affine=True)
            (mlp): Mlp(
              (fc1): Linear(in_features=60, out_features=120, bias=True)
              (act): GELU(approximate='none')
              (fc2): Linear(in_features=120, out_features=60, bias=True)
              (drop): Dropout(p=0.0, inplace=False)
            )
          )
        )
      )
      (conv): Sequential(
        (0): Conv2d(60, 15, kernel_size=(3, 3), stride=(1, 1), padding=(1, 1))
        (1): LeakyReLU(negative_slope=0.2, inplace=True)
        (2): Conv2d(15, 15, kernel_size=(1, 1), stride=(1, 1))
        (3): LeakyReLU(negative_slope=0.2, inplace=True)
        (4): Conv2d(15, 60, kernel_size=(3, 3), stride=(1, 1), padding=(1, 1))
      )
      (patch_embed): PatchEmbed()
      (patch_unembed): PatchUnEmbed()
    )
    (2): RSTB(
      (residual_group): BasicLayer(
        dim=60, input_resolution=(64, 64), depth=6
        (blocks): ModuleList(
          (0): SwinTransformerBlock(
            dim=60, input_resolution=(64, 64), num_heads=6, window_size=8, shift_size=0, mlp_ratio=2
            (norm1): LayerNorm((60,), eps=1e-05, elementwise_affine=True)
            (attn): WindowAttention(
              dim=60, window_size=(8, 8), num_heads=6
              (qkv): Linear(in_features=60, out_features=180, bias=True)
              (attn_drop): Dropout(p=0.0, inplace=False)
              (proj): Linear(in_features=60, out_features=60, bias=True)
              (proj_drop): Dropout(p=0.0, inplace=False)
            )
            (drop_path): DropPath(drop_prob=0.052)
            (norm2): LayerNorm((60,), eps=1e-05, elementwise_affine=True)
            (mlp): Mlp(
              (fc1): Linear(in_features=60, out_features=120, bias=True)
              (act): GELU(approximate='none')
              (fc2): Linear(in_features=120, out_features=60, bias=True)
              (drop): Dropout(p=0.0, inplace=False)
            )
          )
          (1): SwinTransformerBlock(
            dim=60, input_resolution=(64, 64), num_heads=6, window_size=8, shift_size=4, mlp_ratio=2
            (norm1): LayerNorm((60,), eps=1e-05, elementwise_affine=True)
            (attn): WindowAttention(
              dim=60, window_size=(8, 8), num_heads=6
              (qkv): Linear(in_features=60, out_features=180, bias=True)
              (attn_drop): Dropout(p=0.0, inplace=False)
              (proj): Linear(in_features=60, out_features=60, bias=True)
              (proj_drop): Dropout(p=0.0, inplace=False)
            )
            (drop_path): DropPath(drop_prob=0.057)
            (norm2): LayerNorm((60,), eps=1e-05, elementwise_affine=True)
            (mlp): Mlp(
              (fc1): Linear(in_features=60, out_features=120, bias=True)
              (act): GELU(approximate='none')
              (fc2): Linear(in_features=120, out_features=60, bias=True)
              (drop): Dropout(p=0.0, inplace=False)
            )
          )
          (2): SwinTransformerBlock(
            dim=60, input_resolution=(64, 64), num_heads=6, window_size=8, shift_size=0, mlp_ratio=2
            (norm1): LayerNorm((60,), eps=1e-05, elementwise_affine=True)
            (attn): WindowAttention(
              dim=60, window_size=(8, 8), num_heads=6
              (qkv): Linear(in_features=60, out_features=180, bias=True)
              (attn_drop): Dropout(p=0.0, inplace=False)
              (proj): Linear(in_features=60, out_features=60, bias=True)
              (proj_drop): Dropout(p=0.0, inplace=False)
            )
            (drop_path): DropPath(drop_prob=0.061)
            (norm2): LayerNorm((60,), eps=1e-05, elementwise_affine=True)
            (mlp): Mlp(
              (fc1): Linear(in_features=60, out_features=120, bias=True)
              (act): GELU(approximate='none')
              (fc2): Linear(in_features=120, out_features=60, bias=True)
              (drop): Dropout(p=0.0, inplace=False)
            )
          )
          (3): SwinTransformerBlock(
            dim=60, input_resolution=(64, 64), num_heads=6, window_size=8, shift_size=4, mlp_ratio=2
            (norm1): LayerNorm((60,), eps=1e-05, elementwise_affine=True)
            (attn): WindowAttention(
              dim=60, window_size=(8, 8), num_heads=6
              (qkv): Linear(in_features=60, out_features=180, bias=True)
              (attn_drop): Dropout(p=0.0, inplace=False)
              (proj): Linear(in_features=60, out_features=60, bias=True)
              (proj_drop): Dropout(p=0.0, inplace=False)
            )
            (drop_path): DropPath(drop_prob=0.065)
            (norm2): LayerNorm((60,), eps=1e-05, elementwise_affine=True)
            (mlp): Mlp(
              (fc1): Linear(in_features=60, out_features=120, bias=True)
              (act): GELU(approximate='none')
              (fc2): Linear(in_features=120, out_features=60, bias=True)
              (drop): Dropout(p=0.0, inplace=False)
            )
          )
          (4): SwinTransformerBlock(
            dim=60, input_resolution=(64, 64), num_heads=6, window_size=8, shift_size=0, mlp_ratio=2
            (norm1): LayerNorm((60,), eps=1e-05, elementwise_affine=True)
            (attn): WindowAttention(
              dim=60, window_size=(8, 8), num_heads=6
              (qkv): Linear(in_features=60, out_features=180, bias=True)
              (attn_drop): Dropout(p=0.0, inplace=False)
              (proj): Linear(in_features=60, out_features=60, bias=True)
              (proj_drop): Dropout(p=0.0, inplace=False)
            )
            (drop_path): DropPath(drop_prob=0.070)
            (norm2): LayerNorm((60,), eps=1e-05, elementwise_affine=True)
            (mlp): Mlp(
              (fc1): Linear(in_features=60, out_features=120, bias=True)
              (act): GELU(approximate='none')
              (fc2): Linear(in_features=120, out_features=60, bias=True)
              (drop): Dropout(p=0.0, inplace=False)
            )
          )
          (5): SwinTransformerBlock(
            dim=60, input_resolution=(64, 64), num_heads=6, window_size=8, shift_size=4, mlp_ratio=2
            (norm1): LayerNorm((60,), eps=1e-05, elementwise_affine=True)
            (attn): WindowAttention(
              dim=60, window_size=(8, 8), num_heads=6
              (qkv): Linear(in_features=60, out_features=180, bias=True)
              (attn_drop): Dropout(p=0.0, inplace=False)
              (proj): Linear(in_features=60, out_features=60, bias=True)
              (proj_drop): Dropout(p=0.0, inplace=False)
            )
            (drop_path): DropPath(drop_prob=0.074)
            (norm2): LayerNorm((60,), eps=1e-05, elementwise_affine=True)
            (mlp): Mlp(
              (fc1): Linear(in_features=60, out_features=120, bias=True)
              (act): GELU(approximate='none')
              (fc2): Linear(in_features=120, out_features=60, bias=True)
              (drop): Dropout(p=0.0, inplace=False)
            )
          )
        )
      )
      (conv): Sequential(
        (0): Conv2d(60, 15, kernel_size=(3, 3), stride=(1, 1), padding=(1, 1))
        (1): LeakyReLU(negative_slope=0.2, inplace=True)
        (2): Conv2d(15, 15, kernel_size=(1, 1), stride=(1, 1))
        (3): LeakyReLU(negative_slope=0.2, inplace=True)
        (4): Conv2d(15, 60, kernel_size=(3, 3), stride=(1, 1), padding=(1, 1))
      )
      (patch_embed): PatchEmbed()
      (patch_unembed): PatchUnEmbed()
    )
    (3): RSTB(
      (residual_group): BasicLayer(
        dim=60, input_resolution=(64, 64), depth=6
        (blocks): ModuleList(
          (0): SwinTransformerBlock(
            dim=60, input_resolution=(64, 64), num_heads=6, window_size=8, shift_size=0, mlp_ratio=2
            (norm1): LayerNorm((60,), eps=1e-05, elementwise_affine=True)
            (attn): WindowAttention(
              dim=60, window_size=(8, 8), num_heads=6
              (qkv): Linear(in_features=60, out_features=180, bias=True)
              (attn_drop): Dropout(p=0.0, inplace=False)
              (proj): Linear(in_features=60, out_features=60, bias=True)
              (proj_drop): Dropout(p=0.0, inplace=False)
            )
            (drop_path): DropPath(drop_prob=0.078)
            (norm2): LayerNorm((60,), eps=1e-05, elementwise_affine=True)
            (mlp): Mlp(
              (fc1): Linear(in_features=60, out_features=120, bias=True)
              (act): GELU(approximate='none')
              (fc2): Linear(in_features=120, out_features=60, bias=True)
              (drop): Dropout(p=0.0, inplace=False)
            )
          )
          (1): SwinTransformerBlock(
            dim=60, input_resolution=(64, 64), num_heads=6, window_size=8, shift_size=4, mlp_ratio=2
            (norm1): LayerNorm((60,), eps=1e-05, elementwise_affine=True)
            (attn): WindowAttention(
              dim=60, window_size=(8, 8), num_heads=6
              (qkv): Linear(in_features=60, out_features=180, bias=True)
              (attn_drop): Dropout(p=0.0, inplace=False)
              (proj): Linear(in_features=60, out_features=60, bias=True)
              (proj_drop): Dropout(p=0.0, inplace=False)
            )
            (drop_path): DropPath(drop_prob=0.083)
            (norm2): LayerNorm((60,), eps=1e-05, elementwise_affine=True)
            (mlp): Mlp(
              (fc1): Linear(in_features=60, out_features=120, bias=True)
              (act): GELU(approximate='none')
              (fc2): Linear(in_features=120, out_features=60, bias=True)
              (drop): Dropout(p=0.0, inplace=False)
            )
          )
          (2): SwinTransformerBlock(
            dim=60, input_resolution=(64, 64), num_heads=6, window_size=8, shift_size=0, mlp_ratio=2
            (norm1): LayerNorm((60,), eps=1e-05, elementwise_affine=True)
            (attn): WindowAttention(
              dim=60, window_size=(8, 8), num_heads=6
              (qkv): Linear(in_features=60, out_features=180, bias=True)
              (attn_drop): Dropout(p=0.0, inplace=False)
              (proj): Linear(in_features=60, out_features=60, bias=True)
              (proj_drop): Dropout(p=0.0, inplace=False)
            )
            (drop_path): DropPath(drop_prob=0.087)
            (norm2): LayerNorm((60,), eps=1e-05, elementwise_affine=True)
            (mlp): Mlp(
              (fc1): Linear(in_features=60, out_features=120, bias=True)
              (act): GELU(approximate='none')
              (fc2): Linear(in_features=120, out_features=60, bias=True)
              (drop): Dropout(p=0.0, inplace=False)
            )
          )
          (3): SwinTransformerBlock(
            dim=60, input_resolution=(64, 64), num_heads=6, window_size=8, shift_size=4, mlp_ratio=2
            (norm1): LayerNorm((60,), eps=1e-05, elementwise_affine=True)
            (attn): WindowAttention(
              dim=60, window_size=(8, 8), num_heads=6
              (qkv): Linear(in_features=60, out_features=180, bias=True)
              (attn_drop): Dropout(p=0.0, inplace=False)
              (proj): Linear(in_features=60, out_features=60, bias=True)
              (proj_drop): Dropout(p=0.0, inplace=False)
            )
            (drop_path): DropPath(drop_prob=0.091)
            (norm2): LayerNorm((60,), eps=1e-05, elementwise_affine=True)
            (mlp): Mlp(
              (fc1): Linear(in_features=60, out_features=120, bias=True)
              (act): GELU(approximate='none')
              (fc2): Linear(in_features=120, out_features=60, bias=True)
              (drop): Dropout(p=0.0, inplace=False)
            )
          )
          (4): SwinTransformerBlock(
            dim=60, input_resolution=(64, 64), num_heads=6, window_size=8, shift_size=0, mlp_ratio=2
            (norm1): LayerNorm((60,), eps=1e-05, elementwise_affine=True)
            (attn): WindowAttention(
              dim=60, window_size=(8, 8), num_heads=6
              (qkv): Linear(in_features=60, out_features=180, bias=True)
              (attn_drop): Dropout(p=0.0, inplace=False)
              (proj): Linear(in_features=60, out_features=60, bias=True)
              (proj_drop): Dropout(p=0.0, inplace=False)
            )
            (drop_path): DropPath(drop_prob=0.096)
            (norm2): LayerNorm((60,), eps=1e-05, elementwise_affine=True)
            (mlp): Mlp(
              (fc1): Linear(in_features=60, out_features=120, bias=True)
              (act): GELU(approximate='none')
              (fc2): Linear(in_features=120, out_features=60, bias=True)
              (drop): Dropout(p=0.0, inplace=False)
            )
          )
          (5): SwinTransformerBlock(
            dim=60, input_resolution=(64, 64), num_heads=6, window_size=8, shift_size=4, mlp_ratio=2
            (norm1): LayerNorm((60,), eps=1e-05, elementwise_affine=True)
            (attn): WindowAttention(
              dim=60, window_size=(8, 8), num_heads=6
              (qkv): Linear(in_features=60, out_features=180, bias=True)
              (attn_drop): Dropout(p=0.0, inplace=False)
              (proj): Linear(in_features=60, out_features=60, bias=True)
              (proj_drop): Dropout(p=0.0, inplace=False)
            )
            (drop_path): DropPath(drop_prob=0.100)
            (norm2): LayerNorm((60,), eps=1e-05, elementwise_affine=True)
            (mlp): Mlp(
              (fc1): Linear(in_features=60, out_features=120, bias=True)
              (act): GELU(approximate='none')
              (fc2): Linear(in_features=120, out_features=60, bias=True)
              (drop): Dropout(p=0.0, inplace=False)
            )
          )
        )
      )
      (conv): Sequential(
        (0): Conv2d(60, 15, kernel_size=(3, 3), stride=(1, 1), padding=(1, 1))
        (1): LeakyReLU(negative_slope=0.2, inplace=True)
        (2): Conv2d(15, 15, kernel_size=(1, 1), stride=(1, 1))
        (3): LeakyReLU(negative_slope=0.2, inplace=True)
        (4): Conv2d(15, 60, kernel_size=(3, 3), stride=(1, 1), padding=(1, 1))
      )
      (patch_embed): PatchEmbed()
      (patch_unembed): PatchUnEmbed()
    )
  )
  (norm): LayerNorm((60,), eps=1e-05, elementwise_affine=True)
  (conv_after_body): Sequential(
    (0): Conv2d(60, 15, kernel_size=(3, 3), stride=(1, 1), padding=(1, 1))
    (1): LeakyReLU(negative_slope=0.2, inplace=True)
    (2): Conv2d(15, 15, kernel_size=(1, 1), stride=(1, 1))
    (3): LeakyReLU(negative_slope=0.2, inplace=True)
    (4): Conv2d(15, 60, kernel_size=(3, 3), stride=(1, 1), padding=(1, 1))
  )
  (conv_last): Conv2d(60, 3, kernel_size=(3, 3), stride=(1, 1), padding=(1, 1))
)

24-11-09 22:33:38.248 : 
 |  mean  |  min   |  max   |  std   || shape               
 |  0.028 | -0.564 |  0.576 |  0.327 | torch.Size([60, 3, 1, 1]) || conv_first.weight
 |  0.013 | -0.519 |  0.568 |  0.365 | torch.Size([60]) || conv_first.bias
 |  1.000 |  1.000 |  1.000 |  0.000 | torch.Size([60]) || patch_embed.norm.weight
 |  0.000 |  0.000 |  0.000 |  0.000 | torch.Size([60]) || patch_embed.norm.bias
…
